…
│    │    └─ModuleList: 3-11                                                --                        (recursive)
│    │    └─ModuleList: 3-12                                                --                        (recursive)
│    │    └─ModuleList: 3-10                                                --                        (recursive)
│    │    └─ModuleList: 3-11                                                --                        (recursive)
│    │    └─ModuleList: 3-12                                                --                        (recursive)
├─SegformerDecodeHead: 1-2                                                  [1, 14, 56, 56]           --
│    └─ModuleList: 2-2                                                      --                        --
│    │    └─SegformerMLP: 3-13                                              [1, 3136, 768]            49,920
│    │    └─SegformerMLP: 3-14                                              [1, 784, 768]             99,072
│    │    └─SegformerMLP: 3-15                                              [1, 196, 768]             246,528
│    │    └─SegformerMLP: 3-16                                              [1, 49, 768]              393,984
│    └─Conv2d: 2-3                                                          [1, 768, 56, 56]          2,359,296
│    └─BatchNorm2d: 2-4                                                     [1, 768, 56, 56]          1,536
│    └─ReLU: 2-5                                                            [1, 768, 56, 56]          --
│    └─Dropout: 2-6                                                         [1, 768, 56, 56]          --
│    └─Conv2d: 2-7                                                          [1, 14, 56, 56]           10,766
=============================================================================================================================
Total params: 64,050,830
Trainable params: 64,050,830
Non-trainable params: 0
Total mult-adds (G): 8.67
=============================================================================================================================
Input size (MB): 3.61
Forward/backward pass size (MB): 420.53
…
